module attributes {llvm.data_layout = "e-m:e-p270:32:32-p271:32:32-p272:64:64-i64:64-i128:128-f80:128-n8:16:32:64-S128", llvm.target_triple = "x86_64-unknown-linux-gnu", "onnx-mlir.symbol-postfix" = "model"} {
  func.func @main_graph(%arg0: tensor<1x1x28x28xf32> {onnx.name = "input"}) -> (tensor<1x10xf32> {onnx.name = "output"}) {
    %0 = onnx.Constant dense<[1, 16, 28, 28]> : tensor<4xi64>
    %1 = onnx.Constant dense<[[… > : tensor<16x1xf32>
    %2 = onnx.Constant dense<[1, 1, -1]> : tensor<3xi64>
    %3 = onnx.Constant dense_resource<__elided__> : tensor<10x16xf32>
    %4 = onnx.Constant dense<[0.191448957, 4.527250e-02, -0.186475337, -0.0253266096, -0.171667874, 0.164623708, -0.00522086024, 0.194152027, 0.0949379801, -0.113311231]> : tensor<10xf32>
    %5 = onnx.Constant dense_resource<__elided__> : tensor<16x1x3x3xf32>
    %6 = onnx.Constant dense<0.000000e+00> : tensor<16xf32>
    %7 = onnx.Constant dense_resource<__elided__> : tensor<16x16x3x3xf32>
    %8 = "onnx.Conv"(%arg0, %5, %6) {auto_pad = "NOTSET", dilations = [1, 1], group = 1 : si64, kernel_shape = [3, 3], onnx_node_name = "/block/conv1/Conv", pads = [1, 1, 1, 1], strides = [1, 1]} : (tensor<1x1x28x28xf32>, tensor<16x1x3x3xf32>, tensor<16xf32>) -> tensor<1x16x28x28xf32>
    %9 = "onnx.Relu"(%8) {onnx_node_name = "/block/Relu"} : (tensor<1x16x28x28xf32>) -> tensor<1x16x28x28xf32>
    %10 = "onnx.Conv"(%9, %7, %6) {auto_pad = "NOTSET", dilations = [1, 1], group = 1 : si64, kernel_shape = [3, 3], onnx_node_name = "/block/conv2/Conv", pads = [1, 1, 1, 1], strides = [1, 1]} : (tensor<1x16x28x28xf32>, tensor<16x16x3x3xf32>, tensor<16xf32>) -> tensor<1x16x28x28xf32>
    %11 = "onnx.Reshape"(%arg0, %2) {allowzero = 0 : si64, onnx_node_name = "/block/shortcut/shortcut.0/Conv_0"} : (tensor<1x1x28x28xf32>, tensor<3xi64>) -> tensor<1x1x784xf32>
    %12 = "onnx.MatMul"(%1, %11) {onnx_node_name = "/block/shortcut/shortcut.0/Conv_1"} : (tensor<16x1xf32>, tensor<1x1x784xf32>) -> tensor<1x16x784xf32>
    %13 = "onnx.Reshape"(%12, %0) {allowzero = 0 : si64, onnx_node_name = "/block/shortcut/shortcut.0/Conv_2"} : (tensor<1x16x784xf32>, tensor<4xi64>) -> tensor<1x16x28x28xf32>
    %14 = "onnx.Add"(%10, %13) {onnx_node_name = "/block/Add"} : (tensor<1x16x28x28xf32>, tensor<1x16x28x28xf32>) -> tensor<1x16x28x28xf32>
    %15 = "onnx.Relu"(%14) {onnx_node_name = "/block/Relu_1"} : (tensor<1x16x28x28xf32>) -> tensor<1x16x28x28xf32>
    %16 = "onnx.ReduceMeanV13"(%15) {axes = [2, 3], keepdims = 1 : si64, onnx_node_name = "/avgpool/GlobalAveragePool_3"} : (tensor<1x16x28x28xf32>) -> tensor<1x16x1x1xf32>
    %17 = "onnx.Flatten"(%16) {axis = 1 : si64, onnx_node_name = "/Flatten"} : (tensor<1x16x1x1xf32>) -> tensor<1x16xf32>
    %18 = "onnx.Gemm"(%17, %3, %4) {alpha = 1.000000e+00 : f32, beta = 1.000000e+00 : f32, onnx_node_name = "/fc/Gemm", transA = 0 : si64, transB = 1 : si64} : (tensor<1x16xf32>, tensor<10x16xf32>, tensor<10xf32>) -> tensor<1x10xf32>
    return %18 : tensor<1x10xf32>
  }
  "onnx.EntryPoint"() {func = @main_graph} : () -> ()
}
