module attributes {llvm.data_layout = "e-m:e-p270:32:32-p271:32:32-p272:64:64-i64:64-i128:128-f80:128-n8:16:32:64-S128", llvm.target_triple = "x86_64-unknown-linux-gnu", "onnx-mlir.symbol-postfix" = "model"} {
  func.func @main_graph(%arg0: tensor<1x1x28x28xf32> {onnx.name = "input"}) -> (tensor<1x10xf32> {onnx.name = "output"}) {
    %0 = "tosa.const"() <{value = dense<[1, 16, 28, 28]> : tensor<4xi64>}> : () -> tensor<4xi64>
    %1 = "tosa.const"() <{value = dense<[[… > : tensor<16x1xf32>}> : () -> tensor<16x1xf32>
    %2 = "tosa.const"() <{value = dense<[1, 1, -1]> : tensor<3xi64>}> : () -> tensor<3xi64>
    %3 = "tosa.const"() <{value = dense<"…"> : tensor<10x16xf32>}> : () -> tensor<10x16xf32>
    %4 = "tosa.const"() <{value = dense<[0.191448957, 4.527250e-02, -0.186475337, -0.0253266096, -0.171667874, 0.164623708, -0.00522086024, 0.194152027, 0.0949379801, -0.113311231]> : tensor<10xf32>}> : () -> tensor<10xf32>
    %5 = "tosa.const"() <{value = dense<"…"> : tensor<16x1x3x3xf32>}> : () -> tensor<16x1x3x3xf32>
    %6 = "tosa.const"() <{value = dense<0.000000e+00> : tensor<16xf32>}> : () -> tensor<16xf32>
    %7 = "tosa.const"() <{value = dense<"…"> : tensor<16x16x3x3xf32>}> : () -> tensor<16x16x3x3xf32>
    %c3 = arith.constant 3 : index
    %c3_0 = arith.constant 3 : index
    %c1 = arith.constant 1 : index
    %c1_1 = arith.constant 1 : index
    %c1_2 = arith.constant 1 : index
    %c1_3 = arith.constant 1 : index
    %c1_4 = arith.constant 1 : index
    %c16 = arith.constant 16 : index
    %c0 = arith.constant 0 : index
    %c1_5 = arith.constant 1 : index
    %c28 = arith.constant 28 : index
    %c1_6 = arith.constant 1 : index
    %c1_7 = arith.constant 1 : index
    %c2 = arith.constant 2 : index
    %c3_8 = arith.constant 3 : index
    %c2_9 = arith.constant 2 : index
    %c30 = arith.constant 30 : index
    %c27 = arith.constant 27 : index
    %c28_10 = arith.constant 28 : index
    %c28_11 = arith.constant 28 : index
    %c1_12 = arith.constant 1 : index
    %c1_13 = arith.constant 1 : index
    %c2_14 = arith.constant 2 : index
    %c3_15 = arith.constant 3 : index
    %c2_16 = arith.constant 2 : index
    %c30_17 = arith.constant 30 : index
    %c27_18 = arith.constant 27 : index
    %c28_19 = arith.constant 28 : index
    %8 = "tosa.const"() <{value = dense<[0, 2, 3, 1]> : tensor<4xi32>}> : () -> tensor<4xi32>
    %9 = tosa.transpose %arg0, %8 : (tensor<1x1x28x28xf32>, tensor<4xi32>) -> tensor<1x28x28x1xf32>
    %10 = "tosa.const"() <{value = dense<[0, 2, 3, 1]> : tensor<4xi32>}> : () -> tensor<4xi32>
    %11 = tosa.transpose %5, %10 : (tensor<16x1x3x3xf32>, tensor<4xi32>) -> tensor<16x3x3x1xf32>
    %12 = tosa.conv2d %9, %11, %6 {dilation = array<i64: 1, 1>, pad = array<i64: 1, 1, 1, 1>, stride = array<i64: 1, 1>} : (tensor<1x28x28x1xf32>, tensor<16x3x3x1xf32>, tensor<16xf32>) -> tensor<1x28x28x16xf32>
    %13 = "tosa.const"() <{value = dense<[0, 3, 1, 2]> : tensor<4xi32>}> : () -> tensor<4xi32>
    %14 = tosa.transpose %12, %13 : (tensor<1x28x28x16xf32>, tensor<4xi32>) -> tensor<1x16x28x28xf32>
    %15 = tosa.clamp %14 {max_fp = 3.40282347E+38 : f32, max_int = 2147483647 : i64, min_fp = 0.000000e+00 : f32, min_int = 0 : i64} : (tensor<1x16x28x28xf32>) -> tensor<1x16x28x28xf32>
    %c3_20 = arith.constant 3 : index
    %c3_21 = arith.constant 3 : index
    %c1_22 = arith.constant 1 : index
    %c1_23 = arith.constant 1 : index
    %c1_24 = arith.constant 1 : index
    %c1_25 = arith.constant 1 : index
    %c1_26 = arith.constant 1 : index
    %c16_27 = arith.constant 16 : index
    %c0_28 = arith.constant 0 : index
    %c1_29 = arith.constant 1 : index
    %c28_30 = arith.constant 28 : index
    %c1_31 = arith.constant 1 : index
    %c1_32 = arith.constant 1 : index
    %c2_33 = arith.constant 2 : index
    %c3_34 = arith.constant 3 : index
    %c2_35 = arith.constant 2 : index
    %c30_36 = arith.constant 30 : index
    %c27_37 = arith.constant 27 : index
    %c28_38 = arith.constant 28 : index
    %c28_39 = arith.constant 28 : index
    %c1_40 = arith.constant 1 : index
    %c1_41 = arith.constant 1 : index
    %c2_42 = arith.constant 2 : index
    %c3_43 = arith.constant 3 : index
    %c2_44 = arith.constant 2 : index
    %c30_45 = arith.constant 30 : index
    %c27_46 = arith.constant 27 : index
    %c28_47 = arith.constant 28 : index
    %16 = "tosa.const"() <{value = dense<[0, 2, 3, 1]> : tensor<4xi32>}> : () -> tensor<4xi32>
    %17 = tosa.transpose %15, %16 : (tensor<1x16x28x28xf32>, tensor<4xi32>) -> tensor<1x28x28x16xf32>
    %18 = "tosa.const"() <{value = dense<[0, 2, 3, 1]> : tensor<4xi32>}> : () -> tensor<4xi32>
    %19 = tosa.transpose %7, %18 : (tensor<16x16x3x3xf32>, tensor<4xi32>) -> tensor<16x3x3x16xf32>
    %20 = tosa.conv2d %17, %19, %6 {dilation = array<i64: 1, 1>, pad = array<i64: 1, 1, 1, 1>, stride = array<i64: 1, 1>} : (tensor<1x28x28x16xf32>, tensor<16x3x3x16xf32>, tensor<16xf32>) -> tensor<1x28x28x16xf32>
    %21 = "tosa.const"() <{value = dense<[0, 3, 1, 2]> : tensor<4xi32>}> : () -> tensor<4xi32>
    %22 = tosa.transpose %20, %21 : (tensor<1x28x28x16xf32>, tensor<4xi32>) -> tensor<1x16x28x28xf32>
    %23 = tosa.reshape %arg0 {new_shape = array<i64: 1, 1, 784>} : (tensor<1x1x28x28xf32>) -> tensor<1x1x784xf32>
    %24 = "onnx.MatMul"(%1, %23) {onnx_node_name = "/block/shortcut/shortcut.0/Conv_1"} : (tensor<16x1xf32>, tensor<1x1x784xf32>) -> tensor<1x16x784xf32>
    %25 = tosa.reshape %24 {new_shape = array<i64: 1, 16, 28, 28>} : (tensor<1x16x784xf32>) -> tensor<1x16x28x28xf32>
    %c1_48 = arith.constant 1 : index
    %c1_49 = arith.constant 1 : index
    %c16_50 = arith.constant 16 : index
    %c28_51 = arith.constant 28 : index
    %c28_52 = arith.constant 28 : index
    %c1_53 = arith.constant 1 : index
    %c16_54 = arith.constant 16 : index
    %c28_55 = arith.constant 28 : index
    %c28_56 = arith.constant 28 : index
    %26 = tosa.add %22, %25 : (tensor<1x16x28x28xf32>, tensor<1x16x28x28xf32>) -> tensor<1x16x28x28xf32>
    %27 = tosa.clamp %26 {max_fp = 3.40282347E+38 : f32, max_int = 2147483647 : i64, min_fp = 0.000000e+00 : f32, min_int = 0 : i64} : (tensor<1x16x28x28xf32>) -> tensor<1x16x28x28xf32>
    %28 = "onnx.ReduceMeanV13"(%27) {axes = [2, 3], keepdims = 1 : si64, onnx_node_name = "/avgpool/GlobalAveragePool_3"} : (tensor<1x16x28x28xf32>) -> tensor<1x16x1x1xf32>
    %29 = "onnx.Flatten"(%28) {axis = 1 : si64, onnx_node_name = "/Flatten"} : (tensor<1x16x1x1xf32>) -> tensor<1x16xf32>
    %30 = tosa.fully_connected %29, %3, %4 : (tensor<1x16xf32>, tensor<10x16xf32>, tensor<10xf32>) -> tensor<1x10xf32>
    return %30 : tensor<1x10xf32>
  }
  "onnx.EntryPoint"() {func = @main_graph} : () -> ()
}

