module attributes {llvm.data_layout = "e-m:e-p270:32:32-p271:32:32-p272:64:64-i64:64-i128:128-f80:128-n8:16:32:64-S128", llvm.target_triple = "x86_64-unknown-linux-gnu", "onnx-mlir.symbol-postfix" = "model"} {
  func.func @main_graph(%arg0: tensor<1x1x28x28xf32> {onnx.name = "input"}) -> (tensor<1x10xf32> {onnx.name = "output"}) {
    %0 = "tosa.const"() <{value = dense<[1, -1]> : tensor<2xi64>}> : () -> tensor<2xi64>
    %1 = "tosa.const"() <{value = dense<[[[[-0.158224165, 0.0701141357], [0.250195086, 0.289902091]]]]> : tensor<1x1x2x2xf32>}> : () -> tensor<1x1x2x2xf32>
    %2 = "tosa.const"() <{value = dense<0.192975342> : tensor<1xf32>}> : () -> tensor<1xf32>
    %3 = "tosa.const"() <{value = dense<[[[[0.180015489, 0.189732239, 0.156154677], [-0.0984966754, -0.157566234, 0.189530134], [0.0947859287, -5.154860e-02, -0.011935751]]]]> : tensor<1x1x3x3xf32>}> : () -> tensor<1x1x3x3xf32>
    %4 = "tosa.const"() <{value = dense<0.163654491> : tensor<1xf32>}> : () -> tensor<1xf32>
    %5 = "tosa.const"() <{value = dense<[[[[-0.250330418, -0.29953891, 0.237646103], [0.0113014784, 0.284307182, 0.00926641654], [-0.108876944, -0.0126076546, 0.288446516]]]]> : tensor<1x1x3x3xf32>}> : () -> tensor<1x1x3x3xf32>
    %6 = "tosa.const"() <{value = dense<-0.260521889> : tensor<1xf32>}> : () -> tensor<1xf32>
    %7 = "tosa.const"() <{value = dense<"…"> : tensor<10x729xf32>}> : () -> tensor<10x729xf32>
    %8 = "tosa.const"() <{value = dense<[2.847860e-02, 0.0124141686, 0.0158686377, -0.0231720172, -0.0216992293, 0.0268694349, -0.0108217839, 0.0137206763, 0.0309294946, -0.0350712463]> : tensor<10xf32>}> : () -> tensor<10xf32>
    %c2 = arith.constant 2 : index
    %c2_0 = arith.constant 2 : index
    %c0 = arith.constant 0 : index
    %c0_1 = arith.constant 0 : index
    %c0_2 = arith.constant 0 : index
    %c0_3 = arith.constant 0 : index
    %c1 = arith.constant 1 : index
    %c1_4 = arith.constant 1 : index
    %c0_5 = arith.constant 0 : index
    %c1_6 = arith.constant 1 : index
    %c28 = arith.constant 28 : index
    %c1_7 = arith.constant 1 : index
    %c1_8 = arith.constant 1 : index
    %c1_9 = arith.constant 1 : index
    %c2_10 = arith.constant 2 : index
    %c26 = arith.constant 26 : index
    %c27 = arith.constant 27 : index
    %c28_11 = arith.constant 28 : index
    %c1_12 = arith.constant 1 : index
    %c1_13 = arith.constant 1 : index
    %c1_14 = arith.constant 1 : index
    %c2_15 = arith.constant 2 : index
    %c26_16 = arith.constant 26 : index
    %c27_17 = arith.constant 27 : index
    %9 = "tosa.const"() <{value = dense<[0, 2, 3, 1]> : tensor<4xi32>}> : () -> tensor<4xi32>
    %10 = tosa.transpose %arg0, %9 : (tensor<1x1x28x28xf32>, tensor<4xi32>) -> tensor<1x28x28x1xf32>
    %11 = "tosa.const"() <{value = dense<[0, 2, 3, 1]> : tensor<4xi32>}> : () -> tensor<4xi32>
    %12 = tosa.transpose %1, %11 : (tensor<1x1x2x2xf32>, tensor<4xi32>) -> tensor<1x2x2x1xf32>
    %13 = tosa.conv2d %10, %12, %2 {dilation = array<i64: 1, 1>, pad = array<i64: 0, 0, 0, 0>, stride = array<i64: 1, 1>} : (tensor<1x28x28x1xf32>, tensor<1x2x2x1xf32>, tensor<1xf32>) -> tensor<1x27x27x1xf32>
    %14 = "tosa.const"() <{value = dense<[0, 3, 1, 2]> : tensor<4xi32>}> : () -> tensor<4xi32>
    %15 = tosa.transpose %13, %14 : (tensor<1x27x27x1xf32>, tensor<4xi32>) -> tensor<1x1x27x27xf32>
    %c3 = arith.constant 3 : index
    %c3_18 = arith.constant 3 : index
    %c1_19 = arith.constant 1 : index
    %c1_20 = arith.constant 1 : index
    %c1_21 = arith.constant 1 : index
    %c1_22 = arith.constant 1 : index
    %c1_23 = arith.constant 1 : index
    %c1_24 = arith.constant 1 : index
    %c0_25 = arith.constant 0 : index
    %c1_26 = arith.constant 1 : index
    %c27_27 = arith.constant 27 : index
    %c1_28 = arith.constant 1 : index
    %c1_29 = arith.constant 1 : index
    %c2_30 = arith.constant 2 : index
    %c3_31 = arith.constant 3 : index
    %c2_32 = arith.constant 2 : index
    %c29 = arith.constant 29 : index
    %c26_33 = arith.constant 26 : index
    %c27_34 = arith.constant 27 : index
    %c27_35 = arith.constant 27 : index
    %c1_36 = arith.constant 1 : index
    %c1_37 = arith.constant 1 : index
    %c2_38 = arith.constant 2 : index
    %c3_39 = arith.constant 3 : index
    %c2_40 = arith.constant 2 : index
    %c29_41 = arith.constant 29 : index
    %c26_42 = arith.constant 26 : index
    %c27_43 = arith.constant 27 : index
    %16 = "tosa.const"() <{value = dense<[0, 2, 3, 1]> : tensor<4xi32>}> : () -> tensor<4xi32>
    %17 = tosa.transpose %15, %16 : (tensor<1x1x27x27xf32>, tensor<4xi32>) -> tensor<1x27x27x1xf32>
    %18 = "tosa.const"() <{value = dense<[0, 2, 3, 1]> : tensor<4xi32>}> : () -> tensor<4xi32>
    %19 = tosa.transpose %3, %18 : (tensor<1x1x3x3xf32>, tensor<4xi32>) -> tensor<1x3x3x1xf32>
    %20 = tosa.conv2d %17, %19, %4 {dilation = array<i64: 1, 1>, pad = array<i64: 1, 1, 1, 1>, stride = array<i64: 1, 1>} : (tensor<1x27x27x1xf32>, tensor<1x3x3x1xf32>, tensor<1xf32>) -> tensor<1x27x27x1xf32>
    %21 = "tosa.const"() <{value = dense<[0, 3, 1, 2]> : tensor<4xi32>}> : () -> tensor<4xi32>
    %22 = tosa.transpose %20, %21 : (tensor<1x27x27x1xf32>, tensor<4xi32>) -> tensor<1x1x27x27xf32>
    %23 = tosa.clamp %22 {max_fp = 3.40282347E+38 : f32, max_int = 2147483647 : i64, min_fp = 0.000000e+00 : f32, min_int = 0 : i64} : (tensor<1x1x27x27xf32>) -> tensor<1x1x27x27xf32>
    %c3_44 = arith.constant 3 : index
    %c3_45 = arith.constant 3 : index
    %c1_46 = arith.constant 1 : index
    %c1_47 = arith.constant 1 : index
    %c1_48 = arith.constant 1 : index
    %c1_49 = arith.constant 1 : index
    %c1_50 = arith.constant 1 : index
    %c1_51 = arith.constant 1 : index
    %c0_52 = arith.constant 0 : index
    %c1_53 = arith.constant 1 : index
    %c27_54 = arith.constant 27 : index
    %c1_55 = arith.constant 1 : index
    %c1_56 = arith.constant 1 : index
    %c2_57 = arith.constant 2 : index
    %c3_58 = arith.constant 3 : index
    %c2_59 = arith.constant 2 : index
    %c29_60 = arith.constant 29 : index
    %c26_61 = arith.constant 26 : index
    %c27_62 = arith.constant 27 : index
    %c27_63 = arith.constant 27 : index
    %c1_64 = arith.constant 1 : index
    %c1_65 = arith.constant 1 : index
    %c2_66 = arith.constant 2 : index
    %c3_67 = arith.constant 3 : index
    %c2_68 = arith.constant 2 : index
    %c29_69 = arith.constant 29 : index
    %c26_70 = arith.constant 26 : index
    %c27_71 = arith.constant 27 : index
    %24 = "tosa.const"() <{value = dense<[0, 2, 3, 1]> : tensor<4xi32>}> : () -> tensor<4xi32>
    %25 = tosa.transpose %23, %24 : (tensor<1x1x27x27xf32>, tensor<4xi32>) -> tensor<1x27x27x1xf32>
    %26 = "tosa.const"() <{value = dense<[0, 2, 3, 1]> : tensor<4xi32>}> : () -> tensor<4xi32>
    %27 = tosa.transpose %5, %26 : (tensor<1x1x3x3xf32>, tensor<4xi32>) -> tensor<1x3x3x1xf32>
    %28 = tosa.conv2d %25, %27, %6 {dilation = array<i64: 1, 1>, pad = array<i64: 1, 1, 1, 1>, stride = array<i64: 1, 1>} : (tensor<1x27x27x1xf32>, tensor<1x3x3x1xf32>, tensor<1xf32>) -> tensor<1x27x27x1xf32>
    %29 = "tosa.const"() <{value = dense<[0, 3, 1, 2]> : tensor<4xi32>}> : () -> tensor<4xi32>
    %30 = tosa.transpose %28, %29 : (tensor<1x27x27x1xf32>, tensor<4xi32>) -> tensor<1x1x27x27xf32>
    %c1_72 = arith.constant 1 : index
    %c1_73 = arith.constant 1 : index
    %c1_74 = arith.constant 1 : index
    %c27_75 = arith.constant 27 : index
    %c27_76 = arith.constant 27 : index
    %c1_77 = arith.constant 1 : index
    %c1_78 = arith.constant 1 : index
    %c27_79 = arith.constant 27 : index
    %c27_80 = arith.constant 27 : index
    %31 = tosa.add %30, %15 : (tensor<1x1x27x27xf32>, tensor<1x1x27x27xf32>) -> tensor<1x1x27x27xf32>
    %32 = tosa.clamp %31 {max_fp = 3.40282347E+38 : f32, max_int = 2147483647 : i64, min_fp = 0.000000e+00 : f32, min_int = 0 : i64} : (tensor<1x1x27x27xf32>) -> tensor<1x1x27x27xf32>
    %33 = tosa.reshape %32 {new_shape = array<i64: 1, 729>} : (tensor<1x1x27x27xf32>) -> tensor<1x729xf32>
    %34 = tosa.fully_connected %33, %7, %8 : (tensor<1x729xf32>, tensor<10x729xf32>, tensor<10xf32>) -> tensor<1x10xf32>
    return %34 : tensor<1x10xf32>
  }
}

